adaptive_model_trained_over_query.pt (torch, 67595 bytes, 8 tensors)

model.0.weight f4 [20, 784]
000000 2e 59 20 3c 87 c6 24 3c 70 dd 37 39 d7 ff d5 3b
       0.009786887 0.010057098 0.00017534732 0.0065307426
000010 8a e0 a0 3b c2 22 6f 39 a6 d3 09 bd a6 ae b9 bb
       0.0049095796 0.00022805764 -0.03364911 -0.0056665717
000020 39 04 d1 bc ca ca 0a bc a2 2e 27 3d 27 02 13 3c
       -0.025514709 -0.0084712 0.040815957 0.008972681
000030 0e d3 7d bb f7 a0 bc 3c f4 99 11 bc 5a 04 15 bd
       -0.0038730535 0.023025973 -0.008886803 -0.036381103
000040 eb 8c e2 bc c4 a1 87 3c 30 e2 87 3c 68 2a a7 3b
       -0.027655086 0.016556628 0.016587347 0.0051014908
000050 78 bb 4f 3b 0b 04 df 3c 35 f1 a9 bc 1a 90 a6 bc
       0.0031697433 0.027223608 -0.0207449 -0.020332385
000060 69 f4 17 bd ec 5d df 3c 4b 89 4a bc 28 44 43 bc
       -0.037098322 0.027266465 -0.012361835 -0.011918105
000070 8a 26 d2 ba 64 4c 8d 3c 7d d1 d3 3c 56 26 33 bc
       -0.0016033214 0.01724834 0.025856728 -0.010934433
000080 08 77 d0 3c 8c 09 c4 3b 61 bb 0f bd 38 25 fe 3c
       0.025447384 0.0059825834 -0.035090808 0.031023607
000090 56 8e 58 bc 2d ba 9b bb 67 71 5f bc 08 f6 93 3c
       -0.013217529 -0.0047524185 -0.013637877 0.018061653
0000a0 3e eb 93 bb 85 fb c4 3c b1 b8 8a 3c 4d 8c e9 3c
       -0.004514127 0.024045715 0.01693377 0.028509283
0000b0 fe c1 b8 3c 35 38 aa bb e0 70 a0 3c 72 76 ae bc
       0.02255344 -0.0051946887 0.019585073 -0.021296714
0000c0 37 07 a6 3c 77 94 f9 3c 52 ed e0 3c 5c f2 38 bb
       0.020267112 0.030466301 0.027456913 -0.002822063
0000d0 e3 88 8e 3c 18 6f 6a 3c 8c f3 4f 39 e6 f3 88 3c
       0.017399257 0.014308713 0.00019831787 0.016717862
0000e0 7f b6 bf bc 0c fa 80 3b f0 b1 d6 3c fd 46 0b 3d
       -0.02340245 0.003936058 0.026207894 0.034003247
0000f0 38 82 6a 3c 07 3f 54 3c a6 f6 6d bc cb 10 f3 bc
       0.014313273 0.01295448 -0.014524138 -0.029671093
000100 1a 86 b1 ba c6 96 43 3b d3 c6 c3 bb 91 f8 ef 3c
       -0.0013543994 0.0029844507 -0.0059746294 0.02929333
000110 21 a8 88 3b 85 fb 78 3c 04 a9 ea ba e4 13 1b 3d
       0.004170433 0.015196686 -0.0017903154 0.037860766
000120 66 8e e9 3c 1e b7 ac bc 14 db 96 3c fb 13 9e bb
       0.028510284 -0.02108341 0.018415011 -0.004824159
000130 5b ad e9 3b 7e 0e af bc ca 07 c3 bb 56 2b 18 3d
       0.0071312613 -0.021369215 -0.0059518563 0.037150703
000140 8f 18 8b bc f2 d8 ca bc ed 09 dd bc e6 88 9d 3b
       -0.016979484 -0.02476165 -0.026982272 0.0048075793
000150 2c f6 40 bc b3 b4 f8 bc 76 9b b5 bc a3 d3 ea bc
       -0.011777442 -0.030359602 -0.022168856 -0.02866537
000160 96 e6 21 3b 11 63 6d bc d3 d8 e1 3c 6e 4b 25 3b
       0.002470409 -0.014488951 0.02756921 0.0025221962
000170 ce a3 ab bb ac 84 bc 3c bf 83 84 3c b8 49 40 bc
       -0.005238033 0.023012482 0.016176103 -0.011736326
000180 38 b5 bc bc 6a 03 b2 3c 7c 64 e4 bc f1 e5 14 bd
       -0.02303563 0.021730144 -0.027879946 -0.0363521
000190 9c b6 ae 3c a4 57 28 bd bf 3e ec bc 26 2d 2f 3b
       0.02132731 -0.041099206 -0.028838513 0.0026729791
0001a0 31 60 9f bc 1d e7 7b 3c bf 0a b6 bc 00 14 14 bd
       -0.019455047 0.015374926 -0.022221921 -0.036151886
0001b0 90 65 07 3c 4a ce 13 bd 1a b7 d6 bc a9 87 53 3c
       0.0082639605 -0.036085404 -0.026210357 0.012910762
0001c0 34 22 3a bb e2 c1 54 3c d2 7b 06 3c 3f 4f b5 3c
       -0.0028401734 0.012985678 0.008208232 0.022132514
0001d0 96 8a 21 3c bd 8d 29 3b 07 67 77 bc cd 6f 07 3c
       0.009859702 0.0025871836 -0.015100247 0.0082664015
0001e0 91 80 98 bc 6e c5 82 3c 97 ee 21 bb b3 fd 4b 3c
       -0.018615993 0.015963282 -0.002470886 0.012450623
0001f0 30 cc 0c bb 10 21 93 bc 02 5b 3f bc 6b 5c 74 bb
       -0.002148401 -0.017960101 -0.011679413 -0.003728653
000200 e7 bc a2 3c bb 19 a0 3c fd 83 2c 3c 04 f6 b3 3c
       0.019865466 0.01954352 0.010529515 0.021967895
000210 7d 76 df bb 49 76 b7 bc f4 04 23 bd 37 06 01 bc
       -0.006819545 -0.02239527 -0.039799646 -0.007875017
000220 11 2e 5a bc a5 54 88 3c 39 a6 41 3c 1d f2 17 3d
       -0.013316647 0.016641924 0.011819416 0.03709613
000230 98 e3 34 3a 41 54 f5 bb 2b bd b9 bc cb 47 e9 bc
       0.0006900369 -0.0074868505 -0.02267321 -0.028476616
000240 78 ab 0c 3c b8 29 1b bc 7c 4b 01 bb f2 77 03 3d
       0.008585803 -0.009470396 -0.001972883 0.03209681
000250 25 27 10 3d 1c e2 37 3d 76 83 ec bc 47 50 fa bc
       0.03519358 0.04489337 -0.02887128 -0.030555857
000260 94 e9 f5 ba 24 b0 ab 3c 2c 95 00 bc 36 a2 00 bd
       -0.0018761628 0.020958014 -0.007848065 -0.031404696
000270 95 9c d0 3c dd fa 12 bd ba d4 89 bc f2 56 cf bb
       0.02546529 -0.035883773 -0.016825069 -0.0063275034
000280 69 05 b3 bc 4c b3 c2 3c 3c 2d f8 3c a6 31 73 bc
       -0.021853166 0.023767136 0.030295007 -0.01484338
000290 17 88 1b 3c 49 f2 c6 3c da ff 28 3d 6a 33 c6 3c
       0.009492896 0.024285452 0.041259624 0.024194438
0002a0 52 4c 60 bb 18 5d 38 ba 5f 8d 58 3c 8a ce 1b bc
       -0.0034225178 -0.0007032915 0.013217299 -0.009509692
0002b0 fa b1 d3 3c 4c 5f 94 3c b7 c3 83 ba 3b df fe bc
       0.025841702 0.018111847 -0.0010052834 -0.031112304
0002c0 7f ca 27 3d 28 2d fd bc ee 21 52 bb 89 56 1c bc
       0.0409646 -0.030905321 -0.003206368 -0.009542116
0002d0 e0 55 ba bc 38 0b 60 3b 12 25 bd bc 5b b5 ee bc
       -0.022746027 0.0034186374 -0.023088966 -0.029139211
0002e0 d3 eb a5 3c 2a 5a 2f bd 51 4a d5 bc 5d 9c a2 b9
       0.020254051 -0.042810597 -0.026036413 -0.00031015548
0002f0 c2 62 f1 3c 38 50 e3 3c 4d e3 82 3c 4a 03 59 bc
       0.029466037 0.027748212 0.015977526 -0.013245413
000300 af 6b 07 bd 8f 02 cf 3c d8 9e ae bc 1a 91 51 bc
       -0.03306168 0.025269775 -0.021315977 -0.012790943
000310 db 95 a8 3c 86 da fc 3c dc 69 f1 bc 6d 38 31 3c
       0.02057927 0.030865919 -0.029469423 0.010816676
000320 2a 9b bf 3b 87 1a 7d 3c 71 6e 6f 3b 3b 66 be bc
       0.0058473544 0.015448219 0.0036534334 -0.023242107
000330 b2 a0 d8 3a 2c 9b d2 ba 5b dd a5 39 9d 10 ae 3b
       0.0016527383 -0.0016067973 0.00031636175 0.005312039
000340 ff c4 06 bd 17 c9 1b bd 67 fe 9f ba 9d ae 9e bc
       -0.032902714 -0.03803357 -0.0012206555 -0.019370371
000350 d7 43 a9 bb 68 f1 e5 3b b4 a4 cb 3c 89 d1 93 3c
       -0.005165558 0.0070173033 0.02485881 0.01804425
000360 0f ba e4 3c 2b ce 16 bd 9c 5f c9 3c 06 74 2a 3c
       0.02792075 -0.03681771 0.024581723 0.010403639
000370 2d 92 3f 3c a5 0c d8 bc 09 36 07 3d b0 1f d9 3c
       0.011692566 -0.026373217 0.033010516 0.026504368
000380 08 1e 0b 3d 28 a9 28 3d ae 2b 88 bc 63 de ce 3c
       0.033964187 0.041176945 -0.01662239 0.025252527
000390 ab 73 9c 3b 6e b5 b4 3a 73 68 fa bc ca ef 88 bb
       0.004774531 0.001378698 -0.030567383 -0.0041789757
0003a0 59 e3 c6 bc eb 41 75 bb 87 fc 8a bc 40 22 f0 3c
       -0.02427833 -0.0037423323 -0.016966118 0.029313207
0003b0 fc 4a af 3c fa 55 77 bc 29 f3 38 bd 52 74 9c 39
       0.02139806 -0.015096182 -0.04515377 0.00029841304
0003c0 64 61 d4 3c b7 49 88 ba 04 04 e9 3c fa 45 70 3c
       0.025925346 -0.0010397945 0.028444298 0.014665121
0003d0 ee f0 8c bc 32 2e 82 bc 5d 13 b3 ba 4a 18 09 bd
       -0.017204728 -0.015891168 -0.0013662387 -0.03347043
0003e0 55 2c d9 bb 37 d0 00 bd 40 13 80 3b 97 73 74 3c
       -0.0066275992 -0.03144857 0.003908545 0.014920137
0003f0 d8 34 9a 3c a0 87 8d 3c d1 6d fd 3c a8 f5 29 3c
       0.018824026 0.017276585 0.030936154 0.01037351

model.0.bias f4 [20]
000000 25 dc 37 ba a0 25 d2 bb 9b ec 62 3e 2a 8c e6 3e
       -0.00070137 -0.0064131767 0.2216057 0.45028812
000010 5a ad 4b be 76 1b 2a bd c4 8a f9 3d 05 b1 8d 3e
       -0.19890347 -0.041530095 0.121846706 0.27674118
000020 27 b1 e0 3e d6 97 41 bd 07 9d 4a be cb 3b a4 3e
       0.43885157 -0.047263943 -0.19786464 0.32076868
000030 ea 66 b0 bd c1 a6 9c 3d 3e e4 a0 3d d1 93 03 be
       -0.08613379 0.07648993 0.07856034 -0.12849356
000040 7f cc 36 be 6e ac fc be d0 02 1f 3d 71 5c e4 3d
       -0.17851447 -0.49350303 0.03882104 0.11150444

model.2.weight f4 [7, 20]
000000 de 57 11 be 90 89 02 bc f4 35 b5 bd e5 c4 d9 3d
       -0.14193675 -0.007967368 -0.08848181 0.10633258
000010 08 d2 84 bd 57 19 7e bd 8c c4 53 3d e6 94 f1 bd
       -0.06485373 -0.062035885 0.051701114 -0.11795978
000020 b1 84 20 be bf 3d aa bc c1 d6 fd bd 4b d7 78 be
       -0.15675618 -0.020781396 -0.12394477 -0.24300878
000030 9c 3e a1 3d b8 d2 19 be 2e bf 69 bc a0 a0 cb bd
       0.0787327 -0.15021789 -0.014266772 -0.09942746
000040 32 ae 81 bd 92 60 04 3e 84 7d 9f bd d9 b2 24 3e
       -0.06332053 0.12927464 -0.07787612 0.1608385
000050 ba 47 74 3e e2 fa 8d bc 41 af ff 3d 84 6a 3f be
       0.23855487 -0.017331544 0.12484599 -0.18692976
000060 af d5 4f 3e 0e 24 3c 3f b0 d1 ca 3e 9b 48 bf bd
       0.20296358 0.73492515 0.39613104 -0.0934002
000070 10 50 a9 3e 03 5f 2e 3f 38 aa 0a 3d cf 32 31 be
       0.33068895 0.68113726 0.03385374 -0.17304538
000080 c4 02 39 3f de 06 10 3c 2b 90 72 bf a4 80 f2 3e
       0.72269845 0.0087907 -0.9475123 0.4736377
000090 7e 26 9b be 59 81 3e 3f 1f 49 87 be fe 97 f8 3e
       -0.30302805 0.7441612 -0.26422974 0.4855346
0000a0 70 87 4d be 40 66 17 bf e6 64 25 be e9 51 a0 3e
       -0.20071197 -0.59140396 -0.16151771 0.31312492
0000b0 bf 55 3c bd ce aa c5 3e 2a d0 40 be e5 75 83 be
       -0.04598021 0.38606876 -0.18829408 -0.25675884
0000c0 d9 27 ac 3e 3c ba 74 3f bb 50 4f be 46 62 13 3f
       0.3362415 0.9559667 -0.2024564 0.5757183
0000d0 e5 35 00 3f 1d 06 7c 3f 03 96 23 bf 87 7e e2 3e
       0.50082237 0.9844683 -0.63900775 0.44237158
0000e0 8c 92 31 be e8 a3 40 bd 20 7d a6 be de 14 49 3f
       -0.1734106 -0.047031313 -0.32517338 0.78547466
0000f0 15 e6 5f 3d e7 46 39 be 80 3f 27 3f 2e 14 04 3e
       0.054662783 -0.18093453 0.6533127 0.12898323
000100 b6 46 93 be 03 59 36 3f 60 2e 8c 3e e9 d9 8f 3e
       -0.28764886 0.7122957 0.2737913 0.2809594
000110 1c 8e 33 bf ef b2 0e 3d 50 1b 3b 3f ee 30 0b be
       -0.70138717 0.034838613 0.7308855 -0.13592884
000120 91 19 42 3f 58 6c 49 3e 60 4d e4 be e1 f7 72 3e
       0.7582026 0.19670236 -0.44590282 0.23727371
000130 ba 64 20 3f ca 3e 74 bf 14 d0 e4 be 76 e7 16 bf
       0.62653697 -0.9540831 -0.4469 -0.5894693
000140 dd f0 09 3e 40 84 94 be fc 4f e0 3e a4 59 bf 3d
       0.13470788 -0.2900715 0.43811023 0.093432695
000150 e7 fc 66 bf 5a aa 26 3f a3 ca 64 bf 15 64 ed 3e
       -0.9022965 0.65103686 -0.893717 0.4636542
000160 be bf 03 3e a0 20 b9 3e e5 01 2d 3e 8f ec 88 3e
       0.12866113 0.36157703 0.16895254 0.2674298
000170 b6 52 26 3d a1 e0 df 3e 8f 18 22 3d e3 2c 9b be
       0.040606223 0.43726066 0.039574202 -0.30307683
000180 9e 02 3c 3f e2 36 7d bf 3f 26 bf 3e 2a 7d 22 3f
       0.73441494 -0.9891187 0.37333867 0.63472235
000190 fe 09 99 bd 72 ab d9 bd af b1 cb 3e aa d5 d7 3e
       -0.07472609 -0.10628404 0.39784 0.421552
0001a0 cb 73 13 be 9a 39 19 3e c4 70 62 bc 54 48 d8 be
       -0.1439964 0.1496338 -0.013820831 -0.42242682
0001b0 d8 87 8c bc f8 67 1f bd 08 fc 53 3e 12 0a e7 3e
       -0.01715462 -0.03891751 0.20701611 0.4512487
0001c0 7e 2e a7 be 7b db 6d bd 8d 45 9e 3e 8a f4 22 bf
       -0.32652658 -0.05807064 0.30912438 -0.63654387
0001d0 52 3c 84 3e bd 1f 45 bb 5c 89 2b be 7e 34 43 3d
       0.2582727 -0.0030078732 -0.16751617 0.047657482
0001e0 25 04 df 3c 5b 5d c9 3e 7a 32 90 3e a9 2f 31 bf
       0.027223656 0.39329037 0.2816351 -0.6921335
0001f0 29 4e 07 3f 5d ed 13 3d 5a ba 82 bd d0 e1 12 3f
       0.5285364 0.03611504 -0.063832 0.5737581
000200 d6 6f 0d 3f ce 47 f2 3c 62 29 5c be 3b 74 34 3f
       0.55248773 0.029575255 -0.21500161 0.70489854
000210 12 04 29 3f e9 92 8d 3d 5f 5e 07 3f 29 aa 12 3f
       0.66021836 0.069127865 0.52878374 0.57290894
000220 fb 67 7b 3e 08 68 4a 3e 68 3f c3 3e 13 99 ff 3e
       0.24551384 0.19766247 0.38134313 0.49921474

model.2.bias f4 [7]
000000 d2 31 6b bd ec 42 16 3e 01 9d bd 3e 66 0e 09 3f
       -0.05742056 0.14673966 0.37033847 0.53537595
000010 ac 67 8f bd 0e 45 b2 3d 57 19 81 be
       -0.07002196 0.087045774 -0.25214645

model.4.weight f4 [5, 7]
000000 8d 7a c7 bd ea e2 85 3f d4 ed 8e 3f 7f 8c 91 3f
       -0.097401716 1.0459874 1.1166329 1.1371001
000010 e9 d6 b5 be e0 49 de 3d cb d2 74 bf b4 6e 1c be
       -0.35515526 0.10853934 -0.95634145 -0.15276605
000020 3b c9 07 bf ef e1 49 bf 9a 1e ef 3f e7 c0 a2 3e
       -0.5304143 -0.7886037 1.8681214 0.31787798
000030 22 b2 49 bc af 60 c7 3e 8b d4 3e 3e 95 11 e4 be
       -0.012310537 0.3894095 0.18635766 -0.44544664
000040 4c 59 57 3f f9 49 ae 3e cb 21 d6 3f b4 3f 08 3f
       0.8412063 0.34040812 1.6729063 0.53222203
000050 8c 01 d8 3d d0 55 84 3e 40 1d 61 3f 41 57 33 3d
       0.1054717 0.2584672 0.87935257 0.043784384
000060 be e5 91 3e 10 ce 94 3e 48 da 4c bf 19 a7 a6 3f
       0.28495592 0.29063463 -0.8002057 1.3019744
000070 da 76 81 3e 07 92 ec bd 75 c9 b8 be 19 9d dc 3c
       0.2528599 -0.1155129 -0.360912 0.026930379
000080 1e a7 9c be b8 fa 31 3e a2 d8 40 3c
       -0.3059625 0.17380798 0.011770399

model.4.bias f4 [5]
000000 ff b6 80 3d 40 7f 71 3f fd 9d 4b bf 18 d2 f8 be
       0.06284904 0.94334793 -0.79537946 -0.4859779
000010 c2 f7 af be
       -0.34368712

model.6.weight f4 [10, 5]
000000 60 d5 60 bf cb f6 35 bf df 1d c7 3e 6e dd 8c 3f
       -0.87825584 -0.710797 0.38889977 1.1005075
000010 ac fa 4c 3d bd e9 4b 3f 13 2a 9e bf dc 75 8f bf
       0.050043747 0.7965353 -1.235659 -1.1207843
000020 de ce 46 3f 03 13 6e 3e f3 4f 4d 3f 4d a3 fd be
       0.77659404 0.2324944 0.8020012 -0.4953865
000030 42 1b 0c bd e4 7c c8 3e eb ff 1e bc 29 f5 af bc
       -0.034205683 0.39157784 -0.00970457 -0.021479206
000040 0f 68 27 be aa 6a 9c 3f 5f c2 95 be ee 3b ce be
       -0.16348289 1.2220051 -0.29249856 -0.40280098
000050 e0 1d 93 3e b3 11 be 3f d3 59 ad bf 85 8b 6f bf
       0.2873373 1.4849151 -1.3543037 -0.93572265
000060 b6 3d d0 bd 9e fe b7 bf 4f af ef 3e 09 7c 65 3f
       -0.101680204 -1.4374578 0.46813437 0.8964239
000070 e0 8b 9b bd 94 0d d1 be 4e 99 94 bf 92 bc 56 3f
       -0.075950384 -0.40830672 -1.1609285 0.83881485
000080 65 a4 94 bf db 04 66 3f eb 87 68 be c7 14 86 3f
       -1.1612669 0.8985116 -0.22708099 1.0475091
000090 e7 0d 87 bf 9e 82 3a 3f 06 a8 95 bf 4f e2 cb bd
       -1.0551118 0.72855556 -1.1691902 -0.09955274
0000a0 0b 04 aa 3d a5 db 4e 3f de 8b 15 3d d0 1c 76 3c
       0.083015524 0.808039 0.03651034 0.015021518
0000b0 3c 69 dd 3e e2 08 a9 3d 1e 47 32 3f b1 18 64 3f
       0.4324435 0.082536474 0.69639766 0.89100176
0000c0 78 b3 d2 bf 1b 7d c2 3e
       -1.646102 0.37986073

model.6.bias f4 [10]
000000 68 28 ae be 3f 05 d3 3f b8 8b 9d bf 19 f9 8e bf
       -0.34015203 1.6485976 -1.2308264 -1.1169769
000010 a2 18 3c 3e 6d b1 88 3f aa 70 17 be ed c6 bb 3f
       0.18368772 1.0679146 -0.14789072 1.4670082
000020 e9 ce 9a bf 58 ea 77 3e
       -1.2094394 0.24210489
