adaptive_trained_over_meta1024.pt (torch, 67595 bytes, 8 tensors)

model.0.weight f4 [20, 784]
000000 ca 66 92 bb c7 a1 a4 3c 35 ad 50 bb f3 1b e4 3a
       -0.00446782 0.020096673 -0.003184152 0.0017403349
000010 05 36 9f 3a 97 eb 9b bb ef f6 e7 bc d1 07 e8 3a
       0.0012146836 -0.004758309 -0.02831599 0.0017702525
000020 98 2e e3 bc 44 0d 60 bc 0d 33 0f 3d 7d 51 02 3b
       -0.027732179 -0.013675038 0.034960795 0.0019884997
000030 20 57 0b 3a e5 78 ab 3c 24 32 ac bc 8d d2 fa bc
       0.0005315412 0.02093167 -0.021020003 -0.030617977
000040 0f f7 27 bd d1 72 9a 3c 4a 18 30 3c f8 ea a9 3c
       -0.041007098 0.018853577 0.010747978 0.020741925
000050 14 67 3c 3a df 8f f8 3c ca 90 b9 bc 72 f0 d4 bc
       0.00071869907 0.03034204 -0.022652049 -0.02599356
000060 2f ec da bc df 5b b4 3c 04 fc 5c bc 64 5e 15 bc
       -0.02672395 0.022016464 -0.01348782 -0.009116743
000070 a0 e1 6a b9 c0 b2 99 3c f2 9b ae 3c b3 65 89 bc
       -0.00022400031 0.018761992 0.021314595 -0.016772127
000080 3a 4a a2 3c 8d b7 66 3c 76 ae de bc 61 18 d2 3c
       0.019810785 0.014081848 -0.027182799 0.02564639
000090 5a 92 7a bc 82 f0 d1 3b 65 63 6f bc 71 6c c2 3b
       -0.015293682 0.0064068446 -0.0146111 0.0059333374
0000a0 7c 93 89 ba be b7 0f 3d 0b e4 95 3c fb e0 df 3c
       -0.0010496224 0.03508734 0.018297216 0.027328959
0000b0 b9 86 b1 3c 3b d5 8e 3a 61 72 f2 3c a5 7d 27 bb
       0.021670686 0.0010897288 0.029595556 -0.0025557068
0000c0 f1 4c e1 3c 4d 97 1d 3d 76 51 8d 3c 83 0d 38 bc
       0.027502509 0.03847437 0.017250758 -0.01123369
0000d0 10 b3 aa 3c ce 26 93 3c ab cc 20 3c b5 68 00 3d
       0.020837337 0.01796284 0.009814422 0.031349856
0000e0 34 7f b5 bc a0 c6 65 3c 95 88 a4 3c f5 ad 00 3d
       -0.022155382 0.014024407 0.020084659 0.0314159
0000f0 5e ef 6f 3c 86 c7 58 3c 3d 38 d2 3a 63 aa 01 bd
       0.014644472 0.013231164 0.0016038489 -0.031656634
000100 e5 e8 7a bb 35 f7 57 3b b1 52 88 3b 1a b7 6c 3c
       -0.0038285789 0.0032953743 0.004160248 0.014447952
000110 a9 1f a9 3b b2 68 03 3c 42 01 09 bc e2 7c c8 3c
       0.005161245 0.008020567 -0.008362116 0.024473611
000120 1e 3f 04 3d f9 66 6c bc b0 ab 9a 3c 6d 36 68 bb
       0.032286756 -0.0144288475 0.018880695 -0.003543283
000130 3f 8c bf bb 69 7f 74 bc ee e8 ee bb 20 a8 dc 3c
       -0.005845576 -0.014922955 -0.007290951 0.026935637
000140 02 18 84 bc 43 0e 01 bd 3a b5 c6 bc 88 36 4a 3b
       -0.016124729 -0.03150774 -0.024256337 0.0030855257
000150 69 ad 63 bc 22 0b 02 bd 71 f6 86 bc e4 01 f0 bc
       -0.013896325 -0.0317489 -0.016474934 -0.029297777
000160 63 af 3b 3c 61 2a 14 bb 2b 53 a2 3c 84 2f f0 3b
       0.01145539 -0.0022608268 0.019815048 0.007329883
000170 8b fa 95 bc ab 73 f4 3c 25 5e 0a 3c a3 5a f8 bc
       -0.018307945 0.029840311 0.008445297 -0.030316656
000180 07 d2 dc bc 38 b7 77 3c e6 aa f4 bc 62 2f 09 bd
       -0.026955618 0.015119366 -0.029866647 -0.033492453
000190 87 90 ab 3c 4e 4e 26 bd a6 35 44 bd 92 79 91 3b
       0.02094294 -0.04060202 -0.047902726 0.004439541
0001a0 0c 1e 62 bc 7b 9a 98 3c c3 bc 06 bd 45 c9 c2 bc
       -0.013801109 0.01862835 -0.03289486 -0.023777613
0001b0 6e 42 0a 3c 34 f4 15 bd aa d5 9c bc 08 af 84 3c
       0.00843869 -0.036609843 -0.019144852 0.016196743
0001c0 c6 e2 ab 3b 34 2d b3 3c 85 f6 0a bb ba 94 a8 3c
       0.0052455394 0.02187214 -0.0021204066 0.02057873
0001d0 ae f0 38 3c 31 cf 32 bb 06 e5 24 bc 3b 2b 1b 3b
       0.011287851 -0.002728414 -0.010064369 0.002367689
0001e0 26 8b c2 bc 0a 2a a5 3c 1d 39 f2 3b 2c 81 80 3c
       -0.023747992 0.020161647 0.0073920623 0.015686594
0001f0 d9 a3 2b bb 0f 0f 87 bc 32 ea 90 bc ff 01 a8 3b
       -0.002619019 -0.016486673 -0.017689798 0.005127191
000200 53 fc 14 3c e3 1f 77 3c f3 e7 37 3c 05 ef b0 3c
       0.009093362 0.015083286 0.011224735 0.021598348
000210 eb c9 c3 3a d0 64 0a bd c8 2e 3a bd 62 00 2b bc
       0.0014937496 -0.03378755 -0.04545477 -0.010437103
000220 c0 74 14 3b 16 9d 8e 3c 82 20 0a ba e8 13 fb 3c
       0.0022652596 0.017408889 -0.0005269126 0.03064914
000230 79 ac 83 3b de 5b 29 bb 42 14 b0 bc e7 44 09 bd
       0.004018363 -0.002584211 -0.021494035 -0.033512976
000240 44 f8 db 3b a4 67 6a bc c6 74 8b bc 3b 67 02 3d
       0.006712945 -0.014306936 -0.017023455 0.03183673
000250 f9 dc 20 3d b9 11 b4 3c 90 ab 4c bc d1 70 e7 bc
       0.039273236 0.021981107 -0.012492076 -0.028252037
000260 46 af 7c bc c0 d4 73 3c 64 94 82 bc b2 6e 2b bd
       -0.015422648 0.0148822665 -0.015939899 -0.041853614
000270 2d 6b c5 3c c8 b0 18 bd 5f 24 23 bc 9c df 67 bb
       0.024098957 -0.037277967 -0.009957402 -0.0035381084
000280 34 3c 7f ba 4e eb d6 3c 3d 79 2b 3d cd 2e 85 bb
       -0.0009736449 0.026235249 0.04186367 -0.004064417
000290 4e 0b 14 3c 10 ae 98 3c da 34 0c 3d 38 8a d3 3c
       0.009035898 0.018637687 0.03423009 0.025822744
0002a0 23 19 0e bc 50 bd 05 3c 85 33 af 3c b1 04 74 bc
       -0.008672985 0.008162811 0.021386871 -0.014893697
0002b0 4b 66 0a 3d be d0 28 3c 59 bb 96 bb ec c9 0b bd
       0.03378896 0.010303674 -0.0045999703 -0.034128115
0002c0 70 04 1e 3d a7 cf 8f bc 1b b9 cf bb 8a 95 aa bb
       0.03857845 -0.017555071 -0.006339205 -0.0052058147
0002d0 8c 92 0c bd 3f b0 16 bb b2 01 25 bd 2c 7a b8 bc
       -0.034319445 -0.0022993234 -0.04028482 -0.022519194
0002e0 15 30 8a 3c 30 b0 26 bd 86 6a 3b bc 09 9a 8e bb
       0.01686863 -0.04069537 -0.011438971 -0.0043518585
0002f0 cb e9 0d 3d 0e 3d d1 3c 80 ee 95 3c 8d 41 c3 bc
       0.03464679 0.025541808 0.018302202 -0.023834968
000300 70 f4 07 bd 36 f9 a3 3c 32 9e 5c bc 9f 96 79 bb
       -0.0331921 0.020016294 -0.013465451 -0.0038084162
000310 a2 6b ba 3c 14 6d e4 3c 1f cb 0b bd 30 a3 08 3c
       0.022756401 0.027884044 -0.03412926 0.008339688
000320 01 61 60 3c 14 89 37 3c 74 c5 3a 3a b4 ba 92 bc
       0.0136950025 0.011202116 0.000712476 -0.017911293
000330 2f 1e fa 3b 54 5d 84 3c 2a 42 47 3b 15 55 e7 ba
       0.0076329927 0.016157784 0.0030404427 -0.0017649258
000340 16 62 cd bc bb db 08 bd c7 ed b5 3a 17 24 73 bc
       -0.025071185 -0.033412676 0.0013880067 -0.014840147
000350 f7 01 63 bc 6a 7b 3d bc 5c 61 f4 3c 69 ae 02 3d
       -0.013855449 -0.011565069 0.02983158 0.03190461
000360 db 64 06 3d 15 ef 81 bc ac 57 0c 3d 77 61 91 3c
       0.032811027 -0.015861074 0.034263298 0.01774667
000370 bd 46 a9 3b 9a c1 8e bc 0e 9f 09 3d 1e 48 13 3d
       0.0051659034 -0.0174263 0.033598952 0.03595745
000380 b8 94 35 3d 39 4a 0f 3d e2 ac b7 bc 29 da 00 3d
       0.044331282 0.034982894 -0.022421304 0.031458054
000390 a2 90 70 ba ff 73 2e 3b 2e 29 08 bd e8 ea 19 bc
       -0.00091768254 0.0026619432 -0.033242397 -0.009394385
0003a0 15 d4 51 bc 18 bb 83 bb 57 ff 25 3a bd a6 0f 3d
       -0.012806912 -0.004020106 0.0006332299 0.035071123
0003b0 6f 37 a5 3c 08 1b 58 bc 1f cd 90 bc 2b b7 e5 3b
       0.020168034 -0.0131900385 -0.017675934 0.0070103607
0003c0 a5 a3 13 3d e1 6b 0e bb a8 27 df 3c 0b 4b 72 3c
       0.036044735 -0.0021731781 0.02724059 0.014788399
0003d0 02 8e e7 bb a9 6a f3 bc 5f 01 03 3c 2f 70 c0 bc
       -0.007066489 -0.029713945 0.007995932 -0.023490993
0003e0 eb 01 f8 3a fa d0 da bc 17 8c b1 3a a2 22 c4 3b
       0.001892147 -0.026710976 0.0013545778 0.005985574
0003f0 83 12 15 3c 9d b3 f1 3a d4 ea 01 3d dc 89 e9 3b
       0.009098652 0.001844037 0.03171809 0.00712703

model.0.bias f4 [20]
000000 28 e3 00 bc 1a d8 6c bd 14 35 48 3e 6b 56 f6 3e
       -0.007866658 -0.057823278 0.19551498 0.48112807
000010 cf 47 56 be 77 90 94 bd ea ae 31 3e 45 bf ae 3e
       -0.2092583 -0.07254117 0.1735188 0.34130302
000020 aa 62 fa 3e 7e de 55 be 92 1e 75 bd 0f 89 bf 3e
       0.489034 -0.20885655 -0.059843607 0.37409255
000030 cb ea cf bd d3 96 00 3e 47 ad eb 3c fe 5b 0f be
       -0.10152205 0.12557535 0.028769149 -0.13999936
000040 dd 41 96 be b9 1c fb be 4e f4 93 3a 32 4c 8e 3d
       -0.29347125 -0.4904535 0.0011288018 0.06948127

model.2.weight f4 [7, 20]
000000 d4 83 0f be a4 72 92 bb d2 a0 a9 bd df 0a 59 3d
       -0.14015132 -0.0044692326 -0.08282627 0.052988883
000010 d7 7c 8e bd a6 38 86 bd 4e b3 fa 3c 71 70 fd bd
       -0.06957405 -0.065537736 0.030603077 -0.12374962
000020 5d c3 1f be 36 04 c5 bc e3 30 d6 bd 13 29 78 be
       -0.15601869 -0.02404986 -0.10458543 -0.24234419
000030 93 a6 95 3d fb c0 20 be c3 40 41 bc 21 60 b4 bd
       0.07307162 -0.15698616 -0.011795226 -0.08807398
000040 11 cd 86 bd ef 39 0e 3e db 57 8c bd d6 22 2a 3e
       -0.06582082 0.13889287 -0.068526946 0.16614851
000050 dc 4a 4e 3e 3a 0b 32 bd 8f be 95 3e 2e 0e da be
       0.20145744 -0.043467738 0.29246947 -0.42588943
000060 ff c1 54 3e 6b 5b 3a 3f f3 9a 83 3e 89 cb 14 3e
       0.20777129 0.7279574 0.25704154 0.14530768
000070 73 7e 4e 3e 99 5d 00 3f a0 75 a5 3d ba 5d 86 be
       0.20165424 0.5014282 0.08079076 -0.26243383
000080 92 a3 33 3f 14 db 4b 3e 88 9d 7b bf 86 5d 0d 3f
       0.70171463 0.1990779 -0.9828725 0.5522083
000090 d1 e3 9c be 1c b1 38 3f 76 2c 73 be 27 9b de 3e
       -0.3064256 0.7214525 -0.23747429 0.43477747
0000a0 80 07 6d be 87 56 0c bf 9d 8e 40 bd 96 a3 bb 3e
       -0.23147392 -0.5481953 -0.047011007 0.36648244
0000b0 7a e0 31 be 63 43 cd 3e a0 36 52 be a8 a1 8f be
       -0.17370787 0.40090474 -0.2052865 -0.2805302
0000c0 ec 52 d5 3e b7 db 42 3f 1c 07 4d be 22 a2 12 3f
       0.41664827 0.7611651 -0.20022243 0.57278645
0000d0 23 3d ec 3e a8 68 7f 3f a3 70 3f bf e1 d4 9b 3e
       0.46140394 0.9976907 -0.74781245 0.3043585
0000e0 0a f2 b7 bd 0e af 03 be 78 3e ad be 18 32 70 3f
       -0.08981712 -0.12859747 -0.33836722 0.93826437
0000f0 16 43 0f 3d 7f a1 77 be 56 4e 34 3f 4f 63 ab 3d
       0.034976088 -0.241827 0.7043203 0.08368551
000100 a7 71 b4 be 15 75 1a 3f e2 d4 77 3e 38 1b 9c 3e
       -0.3524296 0.60334903 0.24202302 0.30489516
000110 03 fa 35 bf 93 cd 52 3b 65 dd 36 3f 0b 3e 10 bd
       -0.7108461 0.0032165989 0.7143157 -0.03521542
000120 f3 7c 29 3f 7f 44 0b 3e 13 dc b4 be c1 be 0a 3e
       0.6620628 0.13600348 -0.35324153 0.1354933
000130 43 b8 2b 3f aa c2 6d bf b9 38 f2 be 18 0b 0f bf
       0.67078036 -0.9287516 -0.473089 -0.558763
000140 85 15 8d 3d 76 03 04 bf 4e be 24 3f d4 8d a1 3d
       0.0688887 -0.5156778 0.6435288 0.0788838
000150 fd 2b 4b bf 74 98 1a 3f 16 46 78 bf f0 de 0b 3f
       -0.79363996 0.60388875 -0.9698194 0.5463705
000160 72 07 97 3d ce 9c a0 3e 1c 52 8e bc d3 a1 6b 3e
       0.07374467 0.31369632 -0.017373137 0.2301095
000170 66 16 91 bc e0 43 01 3f 15 28 5e 3c 42 5b ca be
       -0.017710876 0.50494194 0.013559361 -0.3952275
000180 cf cc 2d 3f 05 bf 88 bf 4e ef ad 3e 53 87 1b 3f
       0.6789064 -1.0683295 0.33971637 0.60753363
000190 64 4d 86 bd b7 5c ff bd 0d 9e 76 3e fa c0 2d be
       -0.0655773 -0.12468856 0.24083729 -0.16968146
0001a0 c3 53 c3 bd e3 a1 3e 3e 23 21 03 bb 27 2d 08 bf
       -0.09537461 0.18616442 -0.0020008765 -0.53193897
0001b0 c7 29 55 3c 82 3b 58 be 84 d2 d8 3d 74 ce 04 3f
       0.013010449 -0.2111645 0.10587028 0.5187752
0001c0 b4 3e 70 be 7a 73 a4 3d a3 a7 b7 3e f3 0b 1c bf
       -0.2346142 0.08029838 0.35870084 -0.60955733
0001d0 aa fc c2 3e 74 86 4a bd be 76 bb bd b0 b9 f5 3c
       0.38083392 -0.04944463 -0.09153508 0.02999577
0001e0 97 34 ae bb 7b e6 80 3e 8a 1f 66 3e 8e bf 46 bf
       -0.005316328 0.25175843 0.22472969 -0.7763604
0001f0 11 ea 34 3f 6b c7 89 bd fc a1 06 be 4a 5c f9 3e
       0.70669657 -0.06727489 -0.1314773 0.48703223
000200 bb a7 1d 3f ff d8 b1 bd 3c 62 95 bd c7 54 33 3f
       0.6158406 -0.08683967 -0.07294127 0.70051235
000210 bd ce 4e 3f 26 21 50 3c 80 bb be 3e 97 2f 02 3f
       0.8078421 0.012703216 0.37252426 0.50853866
000220 b9 89 a4 3e a8 dc 95 3e 61 94 dc 3e cf b7 c9 3e
       0.32136324 0.2926991 0.43081954 0.39398047

model.2.bias f4 [7]
000000 a1 0f 35 bd ce 19 b8 bc 53 bb ec 3e 79 89 06 3f
       -0.044204358 -0.022473242 0.46236667 0.52553517
000010 d2 dd 93 bc 39 d5 e3 bc 06 8a 06 be
       -0.018050108 -0.027811633 -0.1313859

model.4.weight f4 [5, 7]
000000 71 ae 41 bd 49 92 81 3f f2 ef 9f 3f 8d 39 88 3f
       -0.0472855 1.0122768 1.24951 1.0642563
000010 12 6f 9b be d9 73 c9 bd 18 4b 6d bf b5 d1 47 be
       -0.30358177 -0.09836549 -0.9269271 -0.1951359
000020 64 57 0d bf d5 9b 3d bf a8 f9 ea 3f c8 4b a3 3e
       -0.5521147 -0.74065906 1.8357439 0.31893754
000030 c8 a9 b9 3d 57 1d 97 3e 5c db ca 3d 77 14 b1 be
       0.09065586 0.29514572 0.09905121 -0.34585926
000040 d0 7f 3b 3f af 03 c0 3e 2a ae d3 3f 59 4b 35 3f
       0.732419 0.3750281 1.6537526 0.70818096
000050 b2 8d f9 3d 3c 97 8b 3e 23 87 63 3f 04 a1 a4 bc
       0.12185229 0.2726382 0.8887808 -0.02009631
000060 59 b5 11 3d 5d 2b ed 3d 2d 35 27 bf 33 83 a4 3f
       0.035573337 0.115805365 -0.65315515 1.2852539
000070 31 77 7e 3e 7d ba ec bd 64 12 bc be d3 9c 87 3c
       0.24850155 -0.11559007 -0.3673278 0.016554272
000080 2d ce 9c be 66 5f 2a 3e f1 82 0a 3c
       -0.3062605 0.16637954 0.00845407

model.4.bias f4 [5]
000000 c6 0a 09 3e 34 1c 65 3f c0 6b 38 bf 07 b0 f9 be
       0.13383016 0.8949616 -0.72039413 -0.4876711
000010 5d ff ae be
       -0.34179202

model.6.weight f4 [10, 5]
000000 b6 9a 74 bf 58 e5 40 bf 47 b3 f9 3e cf 13 89 3f
       -0.9554857 -0.7534995 0.4876959 1.070917
000010 d0 a8 4c 3d 58 af 3c 3f 20 18 7b bf 3a 49 94 bf
       0.04996568 0.73705053 -0.98083687 -1.1584847
000020 5f e3 3b 3f ef 12 6e 3e 82 4a 63 3f ee 13 11 bf
       0.73393816 0.2324941 0.88785565 -0.56671035
000030 5f 1d a2 bd 5d e2 be 3e 55 f9 1e bc 84 8f 40 be
       -0.07915758 0.37282076 -0.009703 -0.18804747
000040 2e da 84 be 01 15 a0 3f 79 0a 9a be 41 3a ce be
       -0.25947708 1.250641 -0.30086115 -0.4027882
000050 bd f7 ce 3e 99 7a c2 3f b3 43 ab bf 7f cd 4e bf
       0.40423384 1.5193664 -1.3380035 -0.8078231
000060 b1 cb cd bd 9a 33 bf bf 3c b5 ea 3e 69 7c 54 3f
       -0.10048617 -1.4937623 0.45841396 0.83002335
000070 c8 3a 23 bd d6 50 d1 be 2b b7 7b bf 23 df 5f 3f
       -0.03985098 -0.40881985 -0.9832637 0.87449855
000080 cd 5e 96 bf 4e f7 56 3f 7e 1d 68 be 53 b8 7a 3f
       -1.1747681 0.83971107 -0.226675 0.97937506
000090 a7 59 8b bf 58 a1 38 3f 87 08 99 bf 08 48 ca bd
       -1.0886735 0.7212119 -1.1955727 -0.0987702
0000a0 da cd ff 3d 12 53 4a 3f a3 3f a6 3d 61 05 c7 3a
       0.12490435 0.79033005 0.081176065 0.0015184098
0000b0 bb 68 dd 3e db 20 b4 3d 0b 78 24 3f b0 5b 5f 3f
       0.43243966 0.08795329 0.6424567 0.8724928
0000c0 8b 57 ce bf 9a 91 c1 3e
       -1.6120466 0.37806398

model.6.bias f4 [10]
000000 f8 39 a8 be fe d2 cf 3f 81 75 93 bf 02 a4 93 bf
       -0.32856727 1.6236265 -1.1520234 -1.1534426
000010 f3 cd b0 3d 48 40 8a 3f c8 34 55 be c5 ec bd 3f
       0.08633032 1.0800867 -0.20820916 1.4837881
000020 93 9a 90 bf 16 39 86 3e
       -1.1297172 0.26215428
