mntd_full.pt (torch, 829661 bytes, 4 tensors)

model.0.weight f4 [128, 1000]
0	0x3c8862c2	0.016648654
1	0x3b52e457	0.0032179558
2	0x3c8f82e4	0.017518468
3	0x3c58fe75	0.013244261
4	0xbc36d24d	-0.011158538
5	0x3bcc857b	0.006241498
6	0x3c8f1cf4	0.01746986
7	0xbcb5c2ac	-0.022187553
8	0x3a574cd7	0.0008213049
9	0x3c7f3e63	0.015578839
10	0xbd60b509	-0.05486015
11	0xbc3b2f6b	-0.01142488
12	0xbcbd9a24	-0.023144789
13	0x3cde7fd7	0.027160568
14	0xbca84c01	-0.020544054
15	0xbd0c7c1f	-0.03429806
16	0xbca7786a	-0.02044316
17	0x3d598244	0.053102747
18	0xbc80831f	-0.015687523
19	0x3d1b5099	0.03791866
20	0x3ba6d25e	0.0050909957
21	0xbbfddb7e	-0.007747113
22	0x3c83b7b1	0.016078802
23	0x3b751a09	0.0037399551
24	0x3d301e73	0.04299779
25	0xbd0b1f72	-0.033965535
26	0x3c49964d	0.012303901
27	0xbc6148a1	-0.013750226
28	0x3c9f6e24	0.019461699
29	0xbc828e8c	-0.015937112
30	0x3ca54cd7	0.020178242
31	0xbc0d8db4	-0.008639742
32	0xbcc255ba	-0.023722518
33	0x3c2e625c	0.010643568
34	0xbb98670b	-0.0046509556
35	0x3d30a988	0.043130428
36	0xbc84a914	-0.016193904
37	0xbcfe9703	-0.031077867
38	0xbd2c2397	-0.04202613
39	0x3bdbbc66	0.0067058085
40	0x3c96f737	0.018428428
41	0x3c883a31	0.01662931
42	0x3ce57663	0.028010553
43	0xbd5a0ee5	-0.05323686
44	0x3c45ef7c	0.012081023
45	0xbcf5482f	-0.029941646
46	0xbc1c0a58	-0.0095239505
47	0xbd11fed3	-0.03564341
48	0xbd1fd78c	-0.03902392
49	0xbc9c9009	-0.01911165
50	0x3c074885	0.008257036
51	0x3b30b00a	0.0026960396
52	0x3d20332a	0.039111294
53	0xbc0c121e	-0.008549241
54	0x3d2a1b6d	0.04153006
55	0x3bf22e21	0.007390753
56	0xbb54658f	-0.0032409166
57	0xbcfc9205	-0.030831346
58	0x3cb08c8b	0.021551391
59	0xbc656bec	-0.014002781
60	0x3c56797a	0.013090486
61	0xbd184ed7	-0.037184563
62	0xbce32041	-0.02772534
63	0xbc143083	-0.009044769
64	0xbd066ea0	-0.032820344
65	0x3cd9ed10	0.026602298
66	0x3c751dac	0.014960688
67	0xbcc256b1	-0.023722978
68	0xbd0dfa1f	-0.034662362
69	0x3ca97390	0.020684987
70	0x3b20d35a	0.0024540038
71	0x3bb1fdec	0.005431881
72	0x3c960b72	0.018316004
73	0x3d2a845a	0.041630127
74	0xbcc4aa89	-0.024007099
75	0xb9366688	-0.00017395068
76	0x3cf6faab	0.030148825
77	0xbc8dbf8c	-0.01730325
78	0xbc2d820c	-0.010590088
79	0xbd1d0b8c	-0.03834109
80	0xbb8a4108	-0.004219178
81	0x3c2a0415	0.01037695
82	0x3c3f5961	0.011679024
83	0x3d196546	0.037450098
84	0x3bc63402	0.0060486803
85	0xbd57e441	-0.052707914
86	0xb9514cef	-0.00019960453
87	0x3d755f73	0.05990548
88	0x3b5ef466	0.0034020185
89	0xbc3d4e34	-0.01155429
90	0xbc523ae0	-0.01283142
91	0xbc44eb47	-0.012018985
92	0xbc85fc16	-0.016355556
93	0x3d5fa53d	0.054600943
94	0xbcccf3b3	-0.025018549
95	0x3bbad2ba	0.00570139
96	0xbd134f97	-0.035964575
97	0x3bdbe1de	0.006710275
98	0x3af226b7	0.0018474673
99	0x3c92769f	0.017878829
100	0xbbd1509e	-0.006387784
101	0x3b7c46df	0.003849439
102	0x3cf1f017	0.02953343
103	0xbcbf1ed6	-0.023330133
104	0xbbdc3157	-0.006719749
105	0x3cf4fd35	0.029905895
106	0xbb22604e	-0.002477664
107	0xbb8b8fc9	-0.004259084
108	0xbd2d1c93	-0.04226358
109	0xbaa0392d	-0.0012224071
110	0xbc26d270	-0.010182008
111	0xbc8a663c	-0.016894452
112	0xbd5829fd	-0.05277442
113	0xbd3eae8c	-0.04655318
114	0xbd0b8724	-0.034064427
115	0x3c957ea9	0.018248873
116	0x3c8498e1	0.01618618
117	0x3cabcfde	0.020973142
118	0xbbda697f	-0.006665408
119	0x3c6049e9	0.013689497
120	0x3d12a19c	0.035798654
121	0xbc75668d	-0.014978063
122	0xbc05dd2b	-0.008170406
123	0xbcce3100	-0.02516985
124	0x3d8645ea	0.06556304
125	0xbd36172b	-0.04445569
126	0xbc85dae0	-0.01633972
127	0xbbb14220	-0.005409494
128	0x3d47ba01	0.04876137
129	0xba9617d7	-0.0011451197
130	0x3b8d774c	0.0043172
131	0xbca3ab82	-0.019979242
132	0xbc52d0ec	-0.012867194
133	0xbcb13d01	-0.021635534
134	0x3cad1803	0.021129614
135	0x3c7d3292	0.015453951
136	0x3c93010d	0.017944837
137	0xbc90b52e	-0.017664518
138	0x3c370f35	0.011173059
139	0xbc0d3a87	-0.008619911
140	0xbb4bd4f7	-0.0031102279
141	0xbc080517	-0.008301995
142	0xbcb66d14	-0.02226881
143	0xbc57035f	-0.013123362
144	0x3d5fb00b	0.054611247
145	0xbcbaedd0	-0.022818476
146	0x3ce945b5	0.028475622
147	0xbcca278d	-0.024677062
148	0xbd13384c	-0.03594236
149	0xbc6e2d9e	-0.014537243
150	0xba41965f	-0.0007384773
151	0xbb7ff68f	-0.0039056872
152	0xbcdc6600	-0.026904106
153	0xbc9c141f	-0.019052563
154	0x3bd6ad03	0.0065513863
155	0x3ce44f81	0.027869942
156	0x3c69a7db	0.014261211
157	0x3c178fb3	0.009250569
158	0xbd236ad5	-0.039896805
159	0xbca78c60	-0.020452678
160	0x3c923321	0.017846646
161	0xbc84fb18	-0.016233012
162	0xbd2459a5	-0.040124554
163	0xbd1ca11b	-0.03823958
164	0xbc115cfa	-0.008872265
165	0x3c50af61	0.012737126
166	0x3cf82e2a	0.03029545
167	0x3b5e59c7	0.0033928023
168	0xbd2fb08b	-0.042892974
169	0x3be3bc61	0.0069499467
170	0x3d40c4cc	0.04706268
171	0x3d0f3f49	0.034972463
172	0xbc29be9e	-0.010360388
173	0xbc5ea1fb	-0.013588424
174	0xbb7742fe	-0.003772914
175	0x3c983e58	0.018584415
176	0x3d512d54	0.05106862
177	0x3c16798b	0.009184252
178	0xbc5cc869	-0.013475516
179	0xbc48ac9a	-0.012248183
180	0x3d400e8c	0.046888873
181	0x3c1e4ab7	0.009661368
182	0x3cdab05d	0.026695425
183	0x3c44059d	0.011964229
184	0xbc3d7c3d	-0.011565265
185	0x3b8520b5	0.004062737
186	0xbb2a483e	-0.0025983
187	0xba5a8be2	-0.0008336884
188	0xba549c47	-0.00081104453
189	0x3b2aaccc	0.0026042936
190	0x3ac973a9	0.0015369552
191	0xbc85a868	-0.016315654
192	0x3d4a2358	0.049350113
193	0xbc96deda	-0.01841681
194	0x3baa5e0b	0.005199199
195	0xbca924e8	-0.020647481
196	0xbcecc7cd	-0.028903866
197	0xbb7814f2	-0.0037854281
198	0x3c49dce3	0.01232073
199	0x3c1d738a	0.009610066
200	0xbb5c28f0	-0.0033593737
201	0xbb8d026d	-0.0043032677
202	0x3c055f7f	0.008140444
203	0x3d0bd73d	0.034140814
204	0xbcf6d82e	-0.03013238
205	0x3d21b94d	0.039483357
206	0xbd28963e	-0.041158907
207	0xbbebc2bd	-0.0071948455
208	0x3ca9cae2	0.020726625
209	0x3c1c7d6f	0.00955139
210	0x3bf8e34d	0.0075954557
211	0x3cf89ec4	0.030349143
212	0x3d221c09	0.039577518
213	0xbcefa935	-0.029255489
214	0x3c272f2a	0.010204116
215	0xbd5668a2	-0.05234588
216	0x3b275385	0.002553196
217	0xbd104cb5	-0.035229404
218	0xbcfe3568	-0.031031325
219	0xbc8c81cc	-0.017151736
220	0x3b8b6885	0.004254403
221	0xbc3d08fa	-0.011537785
222	0xbc410c94	-0.011782784
223	0x3d33872c	0.04383008
224	0x3ca0b58a	0.019617815
225	0xbce04102	-0.027374748
226	0x3c8154bf	0.01578748
227	0xbca111e6	-0.019661855
228	0x3ce842dc	0.028352194
229	0x3baea24b	0.0053294054
230	0xbc494b2d	-0.01228599
231	0xbc8bdeeb	-0.017074069
232	0x3b9e5bd1	0.0048327227
233	0x3c96d276	0.018410902
234	0x3c25497b	0.01008832
235	0xbc96bbdd	-0.018400127
236	0xbb829741	-0.003985316
237	0x3ca5f6eb	0.020259341
238	0x3c4b6ae8	0.012415625
239	0xbc8c638c	-0.017137311
240	0xbc1e991b	-0.009680058
241	0x3ced5835	0.028972724
242	0x3d5a8d91	0.053357664
243	0xb8edf158	-0.000113459944
244	0x3c2d795e	0.010588018
245	0xbcb258b9	-0.021770822
246	0xbc21acc5	-0.009867852
247	0x3c71eaa8	0.014765419
248	0xbcd59343	-0.026071196
249	0xbce51b9e	-0.02796727
250	0xbc5b031e	-0.013367442
251	0xbc06b39a	-0.008221531
252	0xbba510e5	-0.0050374144
253	0x3c0db4e6	0.008649087
254	0x3c297dd1	0.010344938
255	0x3adcf05a	0.0016856298

model.0.bias f4 [128]
0	0x3bbec9b0	0.005822383
1	0x3d431767	0.04762974
2	0x3d3d6160	0.046235442
3	0x3c05c7aa	0.008165279
4	0x3c972538	0.018450364
5	0x3c18df3b	0.009330566
6	0xbbca4478	-0.006172713
7	0x3cce56d2	0.025187884
8	0x3c5f008e	0.013610972
9	0xbc064b57	-0.008196673
10	0x3cf73fd1	0.030181797
11	0x3d229a40	0.039697886
12	0x3bc330a8	0.005956728
13	0x3d329edc	0.04360853
14	0x3b66f0ab	0.0035238664
15	0x3d0634e8	0.0327653
16	0x3c16234a	0.009163687
17	0xbba43837	-0.005011584
18	0x3d074b4a	0.033030786
19	0x3c110077	0.0088502085
20	0x3cc6743d	0.024225349
21	0xb950711f	-0.00019878567
22	0x3d2680c0	0.04065013
23	0xbbfab1e0	-0.007650599
24	0x3cf3ce81	0.029761555
25	0x3cba545d	0.022745306
26	0x3cb53c9c	0.022123627
27	0x3c3a9ac1	0.011389435
28	0xbb81fa21	-0.0039665853
29	0x3cb24a90	0.02176407
30	0x3d123882	0.03569842
31	0xbccdff67	-0.0251462
32	0x3d014b98	0.031566232
33	0x3d63644a	0.055515565
34	0x3b8f887d	0.0043802843
35	0x3d310820	0.04322064
36	0x3ca282c3	0.019837743
37	0x3d1bbb91	0.038020674
38	0xbc1261fc	-0.008934494
39	0xbd1f9157	-0.038956966
40	0x3cfd4bd2	0.030919943
41	0x3cf15425	0.029459069
42	0xbb55cabd	-0.0032622062
43	0xb8d3858c	-0.00010086139
44	0x3cae48e4	0.021274991
45	0xbb093634	-0.0020936849
46	0x3ca85198	0.02054672
47	0x3cad51a9	0.021157103
48	0x3d2dc29f	0.042421933
49	0xbc6a3403	-0.014294627
50	0x3d497030	0.049179256
51	0x3d17b542	0.037038095
52	0x3c8131f4	0.01577089
53	0x3cc6b7d5	0.02425758
54	0x3c01166f	0.007878884
55	0xbd0fb51e	-0.035084836
56	0x3ccf9133	0.025337791
57	0x3cf5be13	0.029997861
58	0x3c212972	0.0098365415
59	0xbbad9d08	-0.0052982606
60	0xbc0d0100	-0.008606195
61	0x3ca42c88	0.020040765
62	0x3d610487	0.05493596
63	0x3d1f1a91	0.038843695
64	0x3cf2ef05	0.029654989
65	0xbc0cc792	-0.008592503
66	0x3d198a1c	0.037485227
67	0xb979a0f8	-0.00023806456
68	0x3d1339b0	0.035943687
69	0x3d2996bb	0.041403513
70	0xbc9e9d7d	-0.019362206
71	0x36a75034	4.9863247e-06
72	0x3c425511	0.011861102
73	0x3d1a63f5	0.037692983
74	0x3d0940e4	0.03350915
75	0x3bcd7287	0.0062697562
76	0x3c551726	0.013006007
77	0xbc38d8d2	-0.011282163
78	0x3d050b43	0.032481443
79	0x3d088083	0.033325683
80	0x3d40e473	0.047092866
81	0x3d0d200d	0.034454394
82	0x3cef0def	0.029181449
83	0x3c8ff693	0.01757363
84	0x3cf366a3	0.029712027
85	0xbb60e8f2	-0.0034318534
86	0x3ce1696f	0.027516095
87	0x39bb8fc4	0.00035774533
88	0xbc480af8	-0.012209646
89	0x3c8cb8f5	0.017178038
90	0x3c94c24f	0.01815906
91	0x3d369e0d	0.044584323
92	0x3d15821f	0.036501046
93	0x3d2a17d4	0.04152663
94	0x3d0111db	0.03151117
95	0xbaabe85f	-0.0013115517
96	0x3ca7f524	0.020502634
97	0x3cd7c74d	0.026340151
98	0x3ced0c9d	0.028936679
99	0xbc432469	-0.011910536
100	0x3cd1a66a	0.025592048
101	0x3d1a8358	0.037722915
102	0x3ce0ca29	0.027440147
103	0xbcfba311	-0.030717405
104	0x3b4e323e	0.0031463052
105	0x3c9861ef	0.018601386
106	0x3ce85124	0.028359003
107	0x3c28541c	0.0102739595
108	0x3d159079	0.036514733
109	0x3d6a98f9	0.057274792
110	0x3d001f5b	0.031279903
111	0x3d57b69b	0.05266438
112	0x3b1ac81e	0.0023617814
113	0x3bc77ff3	0.006088251
114	0x3d44bdf6	0.048032723
115	0xbbaecb21	-0.0053342734
116	0x3cb915f9	0.022593485
117	0x3d08a3bd	0.033359278
118	0x3cca314f	0.024681715
119	0x3ba9eb67	0.005185533
120	0x3ca59582	0.020212892
121	0x3ae9c06f	0.0017833839
122	0xbbdbc0de	-0.006706341
123	0x3d371dac	0.04470603
124	0x3d3765f9	0.044774983
125	0x3d361059	0.044449184
126	0x3d1055d5	0.035238106
127	0x3d095bbf	0.03353476

model.2.weight f4 [1, 128]
0	0xbd6ac681	-0.057318214
1	0x3d8ca21e	0.06866859
2	0xbda1d69d	-0.07902262
3	0x3dd4607c	0.103699654
4	0xbda99671	-0.082806475
5	0xbcf09a5b	-0.029370477
6	0x3dd8cd60	0.10586047
7	0xbe0171d6	-0.12641081
8	0x3d568113	0.05236919
9	0x3d8d348b	0.068947874
10	0x3d9653dd	0.073402144
11	0x3da76c14	0.08174911
12	0x3d947863	0.072495244
13	0x3dbd33e0	0.0923841
14	0x3e058238	0.13037956
15	0x3e05d802	0.13070682
16	0x3da77f28	0.0817855
17	0xbdb11d2c	-0.08648142
18	0x3d8e9d3a	0.06963582
19	0x3da48528	0.0803321
20	0xbd893d9b	-0.067012034
21	0x3d93a0d0	0.07208407
22	0xbdc465b3	-0.0958971
23	0xbd9e3381	-0.07724667
24	0x3d8f4277	0.06995099
25	0xbde49696	-0.111615345
26	0xbd7db6d2	-0.06194193
27	0x3da05636	0.078289434
28	0x3dba61b9	0.0910067
29	0xbd798d69	-0.060925875
30	0x3dc0efb8	0.09420723
31	0x3a633914	0.0008667868
32	0xbd4f4327	-0.05060115
33	0x3dcb4791	0.099257596
34	0xbda41142	-0.08011104
35	0x3defe2d7	0.11713188
36	0xbd82f40c	-0.063942045
37	0x3d52a8a6	0.051430367
38	0xbdec32f7	-0.11533158
39	0xbcec0b1c	-0.028813891
40	0xbddfb389	-0.109229155
41	0xbda288a6	-0.0793622
42	0x3dcef7f8	0.1010589
43	0xbd8971dc	-0.0671117
44	0x3d56310a	0.05229286
45	0xbd8ede73	-0.069760226
46	0x3dcc41ef	0.09973513
47	0xbde9912a	-0.11404641
48	0xbd803a09	-0.06261069
49	0xbd6f9a4f	-0.05849677
50	0x3ddd17b3	0.10795536
51	0xbdf94238	-0.12170833
52	0x3dc02787	0.09382539
53	0x3d87cc1f	0.0663073
54	0x3db838c1	0.089952
55	0xbc414c61	-0.011797995
56	0xbdcc4232	-0.09973563
57	0x3e0686db	0.13137381
58	0xbd9b46d4	-0.07581869
59	0x3dc13057	0.09433048
60	0xbe03401b	-0.12817423
61	0xbdc8786e	-0.09788595
62	0x3dd1c776	0.10243122
63	0x3d42e103	0.04757787
64	0x3d841848	0.06449944
65	0x3d9c2050	0.076233506
66	0x3d84f308	0.06491667
67	0xbdecc770	-0.11561477
68	0x3da547ce	0.08070336
69	0x3deb2c26	0.1148303
70	0xbddbffd1	-0.107421525
71	0x3deea181	0.11651898
72	0x3d972ccb	0.073815905
73	0x3d6dfc9b	0.05810223
74	0xbde2c4f9	-0.11072726
75	0x3d7a66ef	0.06113332
76	0x3dc76624	0.09736279
77	0x3df6d8da	0.1205308
78	0xbda9c0cd	-0.08288727
79	0xbda701c7	-0.08154636
80	0xbdcfe3bf	-0.10150861
81	0xbd4afe8c	-0.04955916
82	0xbde179bd	-0.11009548
83	0xbd7ac586	-0.06122353
84	0xbdd5057a	-0.10401435
85	0xbde5fc8b	-0.112298094
86	0x3ddbf2e7	0.10739689
87	0xbd6d3bfa	-0.057918526
88	0xbdec17d7	-0.115279846
89	0xbd2e4deb	-0.042554777
90	0x3dee7f77	0.11645406
91	0xbd880851	-0.06642211
92	0xbd42a941	-0.047524694
93	0xbe010107	-0.12598048
94	0xbdc471a6	-0.09591989
95	0xbdf4455b	-0.11927291
96	0xbdbae12b	-0.09124979
97	0x3e031c33	0.12803726
98	0xbd3dc68d	-0.04633193
99	0x3dc87a97	0.09789007
100	0x3d559f24	0.05215372
101	0x3e0361ac	0.12830228
102	0x3dbf13a9	0.09329922
103	0xbd76d984	-0.060266033
104	0xbd414f5c	-0.047194824
105	0xbdefe370	-0.11713302
106	0x3df557c6	0.11979632
107	0xbd7cacc5	-0.061688203
108	0x3d5a992f	0.053368744
109	0x3d90f15c	0.07077286
110	0x3d9008cb	0.07032927
111	0x3da97345	0.08273939
112	0xbdc740c2	-0.097291484
113	0xbe03c627	-0.12868558
114	0x3e00f700	0.12594223
115	0xbdaead3d	-0.08529136
116	0xbdaa4568	-0.083140194
117	0x3e149016	0.1450809
118	0x3de95946	0.11393981
119	0xbdbe91eb	-0.093051754
120	0x3dfa87ff	0.122329704
121	0xbdcadab6	-0.09904997
122	0xbd9b549f	-0.075844996
123	0xbd95d5b3	-0.073161505
124	0x3d8c0402	0.06836702
125	0xbd8cc488	-0.06873423
126	0x3ded2aaf	0.11580407
127	0x3d890746	0.066908404

optimized_queries f4 [100, 784]
0	0x3f1a5242	0.60281765
1	0xbf0b0922	-0.5431081
2	0x3fcf9f97	1.6220578
3	0xbea14fc4	-0.3150617
4	0x3f88058c	1.0626693
5	0x3ec4707b	0.38367066
6	0x3f36d3e3	0.71417063
7	0xbf803386	-1.0015724
8	0xbe980e62	-0.29698473
9	0x3f15a0c6	0.58448446
10	0xbf034189	-0.51271874
11	0xbe6cec3c	-0.23136991
12	0xc01dbcd8	-2.464651
13	0xbee0324c	-0.43788373
14	0x3f66c25f	0.90140337
15	0x3fdfe128	1.7490587
16	0x3fda45f5	1.7052599
17	0x3f6f57e9	0.93493515
18	0xbef0fcfa	-0.47068006
19	0x3f0c4f80	0.5480881
20	0x3d97caff	0.07411765
21	0xbf625a84	-0.88419366
22	0xbeea7fc0	-0.4580059
23	0xbfe6168d	-1.7975632
24	0x3f4f32b0	0.8093672
25	0xbf5266b1	-0.82187945
26	0xbfb6ab8f	-1.4271106
27	0x3f451d9f	0.76998323
28	0x3f0faa45	0.56119186
29	0xbed3d102	-0.41370398
30	0x3fdd71df	1.7300376
31	0xbdbd5fd0	-0.092467904
32	0xbeeadc9a	-0.4587143
33	0x3e1b40d4	0.15161449
34	0xbdf37913	-0.118883274
35	0xbeef19e7	-0.4669945
36	0x3c1ca585	0.009560947
37	0x3af6d2a1	0.0018831083
38	0x3fb05b3c	1.3777843
39	0xbe7a3014	-0.24432403
40	0xbd4129cb	-0.047158998
41	0xbd282723	-0.04105295
42	0xc0027b54	-2.0387774
43	0x3f8fa049	1.122079
44	0xbee8e685	-0.45488372
45	0x3fa62e47	1.2982873
46	0xbf0bb5a2	-0.54574025
47	0x3f3373d6	0.70098627
48	0xbf4b5924	-0.7943289
49	0x3e2860e3	0.1644321
50	0xbe832478	-0.2561376
51	0x3d4d62c3	0.050143015
52	0xbf877ce1	-1.0584985
53	0x3ea3f6f9	0.32024363
54	0xbf7b0b5a	-0.98064196
55	0x3e69a1c6	0.22815618
56	0x3e0e17af	0.13876222
57	0x3e23c564	0.15993267
58	0x3f1625ed	0.5865162
59	0xbf906eb0	-1.1283779
60	0xbe5d2a90	-0.21598268
61	0xbefd1688	-0.49431252
62	0x3ff9c5e5	1.9513518
63	0x3fa79e67	1.3095216
64	0x3e1af54a	0.15132633
65	0xc01c9572	-2.4466214
66	0xbf4f486b	-0.80969876
67	0xbf27ff68	-0.65624094
68	0xc01486f4	-2.320737
69	0xbd22c5e5	-0.03973951
70	0xbf26eb24	-0.65202546
71	0x3e91d39f	0.28481767
72	0xbfe3ba95	-1.7791315
73	0xbfd135c8	-1.6344538
74	0xbe5f6f3f	-0.21819781
75	0x401e207e	2.4707332
76	0x3f32a8e7	0.69788975
77	0xbf6276f1	-0.8846274
78	0x3e986e4e	0.29771656
79	0x3fe7a2db	1.8096575
80	0x3e5711a9	0.2100283
81	0x3eb3df46	0.35131282
82	0x4011ebb2	2.2800107
83	0xbf82013e	-1.0156629
84	0xbebbd134	-0.36683047
85	0x3eccd1e0	0.40003872
86	0x3f8c49d8	1.0960035
87	0xbecbf3d2	-0.39834458
88	0x3ecb4037	0.3969743
89	0x3d11b4c3	0.03557278
90	0x3feab233	1.8335632
91	0xbefd93bc	-0.49526775
92	0x3ebe2fe8	0.37145925
93	0x3ee8b141	0.45447734
94	0xbfae5abe	-1.3621442
95	0xbc86e6c1	-0.016467454
96	0x3f89d636	1.0768497
97	0xbf17740a	-0.59161437
98	0x3e5e8b67	0.21732865
99	0xbf0e3ed6	-0.5556463
100	0x3e81c4fe	0.25345606
101	0x3f2516a0	0.6448765
102	0xbfd88b45	-1.6917502
103	0x3ffd0f74	1.9770341
104	0x3eac873d	0.3369693
105	0x3f89c9d5	1.0764719
106	0xbf8914bd	-1.0709454
107	0x3f61d3d9	0.8821388
108	0xbe12f105	-0.14349754
109	0x3f38daeb	0.7220904
110	0xbfbc0cb4	-1.4691377
111	0xbf7c42a8	-0.9853921
112	0x3f3c2e3a	0.73508036
113	0xbf82d881	-1.0222322
114	0xbf463606	-0.77426183
115	0xbf108694	-0.5645535
116	0x3eedce7d	0.464466
117	0x3fae468c	1.3615279
118	0x3f8e15a7	1.1100358
119	0x3f9d77d4	1.2302194
120	0x3f26f1b2	0.6521255
121	0x3ea52f0a	0.3226245
122	0xbf61d87b	-0.8822095
123	0x3dc21e30	0.09478414
124	0xbecc8480	-0.3994484
125	0x3f4129bb	0.754543
126	0xbf60f0a3	-0.8786718
127	0x3e7b1a65	0.24521787
128	0x3f948452	1.1602881
129	0xbefa7d3e	-0.48923677
130	0xbfa94361	-1.3223687
131	0x3e081c94	0.13292152
132	0xbdc5648e	-0.0963832
133	0x3f1d165b	0.61362237
134	0xbe8ae297	-0.27126
135	0x3fa0daa7	1.2566727
136	0x3f62dad4	0.88615155
137	0x3e4f7534	0.20259553
138	0x3e8725a7	0.26395914
139	0x3dd90ae8	0.10597783
140	0x3faff94c	1.3747954
141	0x3f93ceb0	1.1547451
142	0x3fc503a9	1.5391742
143	0xbf206376	-0.62651765
144	0xbedf1836	-0.4357316
145	0xbfbe92cb	-1.4888548
146	0xbf42f5b9	-0.76156193
147	0x3f37a1eb	0.7173144
148	0xbe6760be	-0.22595498
149	0x3eaf43b4	0.3423134
150	0xbe2e5ed0	-0.17028356
151	0xbfa808ab	-1.3127645
152	0xbeb4177f	-0.35174176
153	0x3f5f345e	0.8718928
154	0xbfc12a5b	-1.5091051
155	0x3f39bdff	0.72555536
156	0x3f044693	0.5167019
157	0xbe86ea7d	-0.26350775
158	0x3fca5b33	1.5809082
159	0x3e475d07	0.19469081
160	0x3e8080a5	0.25098148
161	0xbd018b5a	-0.031627037
162	0xbf3869c6	-0.720364
163	0x3f4c3106	0.79762304
164	0x3eb52c54	0.35385382
165	0x3fa13ccc	1.2596679
166	0xbf549bd4	-0.83050275
167	0xbf219f24	-0.63133454
168	0xc002cafe	-2.0436397
169	0x3ea02c34	0.31283724
170	0x3effe193	0.49976787
171	0xbec06abb	-0.3758143
172	0x3f589e77	0.846168
173	0x3d7f21a4	0.06228794
174	0x3e2489bc	0.16068166
175	0x3f27313e	0.6530951
176	0xbfd3f742	-1.6559832
177	0xbfad9e90	-1.3564014
178	0x3f669de5	0.9008468
179	0x3e54571e	0.20736358
180	0x3f42eb66	0.7614044
181	0xbf8fe147	-1.1240624
182	0x3dea6afa	0.114461854
183	0xbf80617d	-1.0029751
184	0x3e89e9e4	0.26936257
185	0x3cb5ee10	0.022208244
186	0xbf84fadc	-1.0389056
187	0xbf707115	-0.9392255
188	0xbf062582	-0.5240098
189	0x3da1c07a	0.0789804
190	0x403ab582	2.9173284
191	0x3f6aedf5	0.91769344
192	0x3f4f30ed	0.8093403
193	0xbf497fc8	-0.78710604
194	0xbfc9c4e2	-1.5763209
195	0xbe2c1180	-0.1680355
196	0xbde53b59	-0.1119296
197	0x3ef6e055	0.48218027
198	0x3f81b25a	1.0132554
199	0xbf58a82d	-0.84631616
200	0x3e8f758c	0.2801937
201	0xbfa1e2a2	-1.2647288
202	0xbe5f93a8	-0.2183367
203	0x3e06b1a7	0.13153706
204	0x3e97962d	0.29606763
205	0x3e5b77f0	0.21432471
206	0xbf6a474d	-0.91515046
207	0x3f2c8b7a	0.67400324
208	0xbefa7a28	-0.48921323
209	0x3f1be734	0.6089966
210	0xbfd330d9	-1.6499282
211	0xbda065ae	-0.07831894
212	0xbf3f3509	-0.746903
213	0xbf49b4a0	-0.78791237
214	0xbfc3abf4	-1.5286851
215	0xbf99e6b7	-1.2023534
216	0xbf75f3d6	-0.9607519
217	0xbed192c2	-0.4093228
218	0x3f0827da	0.5318581
219	0xbf84c94f	-1.0373935
220	0xbc6005be	-0.013673244
221	0x3f95c3c2	1.1700366
222	0xbf8501fb	-1.0391229
223	0xbee871da	-0.45399362
224	0x3eeb97e6	0.46014327
225	0xbf9c3f53	-1.2206825
226	0xbf8ff950	-1.1247959
227	0x3f8c8f5a	1.0981247
228	0x3f85b80c	1.0446792
229	0xbececfb0	-0.40392828
230	0xbf05f0bf	-0.52320474
231	0xbf89de3f	-1.0770949
232	0x3e77105e	0.24127337
233	0x3fbd2822	1.4777873
234	0x3f225ace	0.63419807
235	0xbd04faef	-0.03246587
236	0xbfa96284	-1.323319
237	0xbf34be75	-0.70603114
238	0x3ddc92c0	0.10770178
239	0x3e85feaa	0.26170856
240	0xbf9155a2	-1.1354258
241	0xbed70154	-0.419932
242	0x3ef20bbb	0.47274575
243	0xbe8977c1	-0.26849177
244	0x3f98b9da	1.1931717
245	0x3e36939d	0.17829747
246	0x3f3718b6	0.7152208
247	0x3f949bd3	1.1610054
248	0x3f199528	0.5999322
249	0x3e4b53e9	0.19856228
250	0xbf869306	-1.0513618
251	0xbf121b98	-0.57073355
252	0x3f4a2276	0.78958833
253	0xbe8e2f6b	-0.27770552
254	0x3e56080d	0.20901509
255	0xbfc1c467	-1.5138062
